…
number of classes: 4
slide-level counts:  
 0    13
1    14
2    13
3    14
Name: label, dtype: int64
Patient-LVL; Number of samples registered in class 0: 13
Slide-LVL; Number of samples registered in class 0: 13
Patient-LVL; Number of samples registered in class 1: 14
Slide-LVL; Number of samples registered in class 1: 14
Patient-LVL; Number of samples registered in class 2: 13
Slide-LVL; Number of samples registered in class 2: 13
Patient-LVL; Number of samples registered in class 3: 14
Slide-LVL; Number of samples registered in class 3: 14
Init Model
CLAM_SB(
  (attention_net): Sequential(
    (0): Linear(in_features=1024, out_features=512, bias=True)
    (1): ReLU()
    (2): Dropout(p=0.25, inplace=False)
    (3): Attn_Net_Gated(
      (attention_a): Sequential(
        (0): Linear(in_features=512, out_features=256, bias=True)
        (1): Tanh()
        (2): Dropout(p=0.25, inplace=False)
      )
      (attention_b): Sequential(
        (0): Linear(in_features=512, out_features=256, bias=True)
        (1): Sigmoid()
        (2): Dropout(p=0.25, inplace=False)
      )
      (attention_c): Linear(in_features=256, out_features=1, bias=True)
    )
  )
  (classifiers): Linear(in_features=512, out_features=4, bias=True)
  (instance_classifiers): ModuleList(
    (0): Linear(in_features=512, out_features=2, bias=True)
    (1): Linear(in_features=512, out_features=2, bias=True)
    (2): Linear(in_features=512, out_features=2, bias=True)
    (3): Linear(in_features=512, out_features=2, bias=True)
  )
  (instance_loss_fn): CrossEntropyLoss()
)
Total number of parameters: 793869
Total number of trainable parameters: 793869
Init Loaders
test_error:  0.625
auc:  0.7500000000000001
Init Model
CLAM_SB(
  (attention_net): Sequential(
    (0): Linear(in_features=1024, out_features=512, bias=True)
    (1): ReLU()
    (2): Dropout(p=0.25, inplace=False)
    (3): Attn_Net_Gated(
      (attention_a): Sequential(
        (0): Linear(in_features=512, out_features=256, bias=True)
        (1): Tanh()
        (2): Dropout(p=0.25, inplace=False)
      )
      (attention_b): Sequential(
        (0): Linear(in_features=512, out_features=256, bias=True)
        (1): Sigmoid()
        (2): Dropout(p=0.25, inplace=False)
      )
      (attention_c): Linear(in_features=256, out_features=1, bias=True)
    )
  )
  (classifiers): Linear(in_features=512, out_features=4, bias=True)
  (instance_classifiers): ModuleList(
    (0): Linear(in_features=512, out_features=2, bias=True)
    (1): Linear(in_features=512, out_features=2, bias=True)
    (2): Linear(in_features=512, out_features=2, bias=True)
    (3): Linear(in_features=512, out_features=2, bias=True)
  )
  (instance_loss_fn): CrossEntropyLoss()
)
Total number of parameters: 793869
Total number of trainable parameters: 793869
Init Loaders
test_error:  0.625
auc:  0.75
Init Model
CLAM_SB(
  (attention_net): Sequential(
    (0): Linear(in_features=1024, out_features=512, bias=True)
    (1): ReLU()
    (2): Dropout(p=0.25, inplace=False)
    (3): Attn_Net_Gated(
      (attention_a): Sequential(
        (0): Linear(in_features=512, out_features=256, bias=True)
        (1): Tanh()
        (2): Dropout(p=0.25, inplace=False)
      )
      (attention_b): Sequential(
        (0): Linear(in_features=512, out_features=256, bias=True)
        (1): Sigmoid()
        (2): Dropout(p=0.25, inplace=False)
      )
      (attention_c): Linear(in_features=256, out_features=1, bias=True)
    )
  )
  (classifiers): Linear(in_features=512, out_features=4, bias=True)
  (instance_classifiers): ModuleList(
    (0): Linear(in_features=512, out_features=2, bias=True)
    (1): Linear(in_features=512, out_features=2, bias=True)
    (2): Linear(in_features=512, out_features=2, bias=True)
    (3): Linear(in_features=512, out_features=2, bias=True)
  )
  (instance_loss_fn): CrossEntropyLoss()
)
Total number of parameters: 793869
Total number of trainable parameters: 793869
Init Loaders
test_error:  0.5
auc:  0.5416666666666666
Init Model
CLAM_SB(
  (attention_net): Sequential(
    (0): Linear(in_features=1024, out_features=512, bias=True)
    (1): ReLU()
    (2): Dropout(p=0.25, inplace=False)
    (3): Attn_Net_Gated(
      (attention_a): Sequential(
        (0): Linear(in_features=512, out_features=256, bias=True)
        (1): Tanh()
        (2): Dropout(p=0.25, inplace=False)
      )
      (attention_b): Sequential(
        (0): Linear(in_features=512, out_features=256, bias=True)
        (1): Sigmoid()
        (2): Dropout(p=0.25, inplace=False)
      )
      (attention_c): Linear(in_features=256, out_features=1, bias=True)
    )
  )
  (classifiers): Linear(in_features=512, out_features=4, bias=True)
  (instance_classifiers): ModuleList(
    (0): Linear(in_features=512, out_features=2, bias=True)
    (1): Linear(in_features=512, out_features=2, bias=True)
    (2): Linear(in_features=512, out_features=2, bias=True)
    (3): Linear(in_features=512, out_features=2, bias=True)
  )
  (instance_loss_fn): CrossEntropyLoss()
)
Total number of parameters: 793869
Total number of trainable parameters: 793869
Init Loaders
test_error:  0.875
auc:  0.4791666666666667
Init Model
CLAM_SB(
  (attention_net): Sequential(
    (0): Linear(in_features=1024, out_features=512, bias=True)
    (1): ReLU()
    (2): Dropout(p=0.25, inplace=False)
    (3): Attn_Net_Gated(
      (attention_a): Sequential(
        (0): Linear(in_features=512, out_features=256, bias=True)
        (1): Tanh()
        (2): Dropout(p=0.25, inplace=False)
      )
      (attention_b): Sequential(
        (0): Linear(in_features=512, out_features=256, bias=True)
        (1): Sigmoid()
        (2): Dropout(p=0.25, inplace=False)
      )
      (attention_c): Linear(in_features=256, out_features=1, bias=True)
    )
  )
  (classifiers): Linear(in_features=512, out_features=4, bias=True)
  (instance_classifiers): ModuleList(
    (0): Linear(in_features=512, out_features=2, bias=True)
    (1): Linear(in_features=512, out_features=2, bias=True)
    (2): Linear(in_features=512, out_features=2, bias=True)
    (3): Linear(in_features=512, out_features=2, bias=True)
  )
  (instance_loss_fn): CrossEntropyLoss()
)
Total number of parameters: 793869
Total number of trainable parameters: 793869
Init Loaders
test_error:  0.5
auc:  0.7291666666666666
